# Ultralytics YOLO26-derived TennisBot tiny-P2 detector without a P5 output.
#
# Experiment goal:
# - test whether a modest width increase over micro-P2 recovers recall;
# - keep P2/P3/P4 detection only for small/far tennis balls;
# - keep YOLO26 end-to-end/DFL-free behavior;
# - avoid C2PSA at tiny width, using C3k2 instead.
#
# This is an ablation config, not a promoted runtime model.

nc: 1
end2end: True
reg_max: 1
scale: n
scales:
  # [depth, width, max_channels]
  n: [0.33, 0.1875, 512]

backbone:
  # [from, repeats, module, args]
  - [-1, 1, Conv, [64, 3, 2]] # 0-P1/2
  - [-1, 1, Conv, [128, 3, 2]] # 1-P2/4
  - [-1, 2, C3k2, [256, False, 0.25]]
  - [-1, 1, Conv, [256, 3, 2]] # 3-P3/8
  - [-1, 2, C3k2, [512, False, 0.25]]
  - [-1, 1, Conv, [512, 3, 2]] # 5-P4/16
  - [-1, 2, C3k2, [512, True]]
  - [-1, 1, Conv, [1024, 3, 2]] # 7-P5/32
  - [-1, 2, C3k2, [1024, True]]
  - [-1, 1, SPPF, [1024, 5, 3, True]] # 9
  - [-1, 1, C3k2, [1024, True, 0.5, True]] # 10

head:
  - [-1, 1, nn.Upsample, [None, 2, "nearest"]]
  - [[-1, 6], 1, Concat, [1]] # cat backbone P4
  - [-1, 2, C3k2, [512, True]] # 13

  - [-1, 1, nn.Upsample, [None, 2, "nearest"]]
  - [[-1, 4], 1, Concat, [1]] # cat backbone P3
  - [-1, 2, C3k2, [256, True]] # 16 (P3/8-small)

  - [-1, 1, nn.Upsample, [None, 2, "nearest"]]
  - [[-1, 2], 1, Concat, [1]] # cat backbone P2
  - [-1, 2, C3k2, [128, True]] # 19 (P2/4-xsmall)

  - [-1, 1, Conv, [128, 3, 2]]
  - [[-1, 16], 1, Concat, [1]] # cat head P3
  - [-1, 2, C3k2, [256, True]] # 22 (P3/8-small)

  - [-1, 1, Conv, [256, 3, 2]]
  - [[-1, 13], 1, Concat, [1]] # cat head P4
  - [-1, 2, C3k2, [512, True]] # 25 (P4/16-medium)

  - [[19, 22, 25], 1, Detect, [nc]] # Detect(P2, P3, P4)
